best_model.pth (torch, 12070 bytes, 6 tensors)

fc1.weight f4 [64, 1]
0	0xbe9bbf20	-0.30419254
1	0x3ed09631	0.40739587
2	0x3f324b8b	0.6964652
3	0x3cc37705	0.023860464
4	0xbf1aee72	-0.6052009
5	0xbdec54f0	-0.11539638
6	0xbf5ae5d0	-0.85506916
7	0x3f41cb1c	0.75700545
8	0x3f0df846	0.5545696
9	0xbf796e3a	-0.9743382
10	0x3f1320ce	0.5747193
11	0xbe2bf2a0	-0.16791773
12	0xbf3da238	-0.7407565
13	0xbef9a670	-0.48759794
14	0x3d9ac3d0	0.075568795
15	0x3ea658f9	0.32489756
16	0xbf301f22	-0.68797505
17	0xbed5d8e0	-0.41767025
18	0xbee0bd8c	-0.43894613
19	0x3e38e5d2	0.1805642
20	0xbf413dd8	-0.7548499
21	0xbbc98351	-0.0061496873
22	0xbd81ebe0	-0.06343818
23	0xbf796606	-0.974213
24	0xbe8b1604	-0.27165234
25	0x3f27397f	0.6532211
26	0x3e25c2a3	0.1618753
27	0xbf5cc590	-0.86238956
28	0x3f44aa64	0.76822495
29	0x3f00b29d	0.5027254
30	0xbea56ec4	-0.3231107
31	0x3f31f421	0.69513136
32	0x3cb64e23	0.022254055
33	0x3e864b75	0.26229444
34	0xbf48dd5a	-0.78462756
35	0xbf5c116e	-0.85964096
36	0xbeb237e4	-0.34808266
37	0x3f471489	0.7776571
38	0xbed858a0	-0.42255116
39	0xbf5c823c	-0.8613622
40	0x3eec0461	0.4609709
41	0x3ec01fe0	0.3752432
42	0xbf322a10	-0.6959543
43	0xbe8a0e74	-0.26964152
44	0x3f1fd4cd	0.62434083
45	0xbf750cd2	-0.9572269
46	0xbc0c4de2	-0.008563491
47	0x3d34abad	0.044109035
48	0xbf2cab22	-0.6744863
49	0x3ec86c88	0.39145303
50	0x3f061604	0.52377343
51	0x3e12d084	0.14337355
52	0xbf4dc242	-0.8037454
53	0xbf04e8ee	-0.5191792
54	0xbf299ab6	-0.66251695
55	0xbf1d06e6	-0.6133865
56	0x3e74cbd8	0.23905885
57	0x3d1123f0	0.035434663
58	0xbecba32c	-0.39772928
59	0x3ec2ac70	0.38022184
60	0xbf6bb7a8	-0.9207711
61	0xbc4bacd8	-0.012431346
62	0x3e9c9cc9	0.30588368
63	0xbf7f3aa6	-0.99698865

fc1.bias f4 [64]
0	0xbee191b4	-0.44056475
1	0xc04bd260	-3.1847153
2	0x3fa91f9d	1.3212773
3	0xbfcfa3c8	-1.6221857
4	0x3e0ae6e8	0.13564646
5	0x3f1abe48	0.60446596
6	0x3f442912	0.7662517
7	0xc03eb8a4	-2.9800196
8	0xbfd49428	-1.6607714
9	0x3e9db4d4	0.30802023
10	0x402fa070	2.7441673
11	0x3e188e20	0.14897966
12	0x3f219ef6	0.6313318
13	0x3f7bfd5a	0.9843346
14	0xbfe3b9c3	-1.7791065
15	0x3f43ff93	0.7656185
16	0x3db32400	0.08747101
17	0xbe3678f8	-0.17819583
18	0x3ea0c6bc	0.31401622
19	0xc01de2d1	-2.4669688
20	0x3f57eb32	0.84343255
21	0x3e3cc32f	0.18433832
22	0x3e494700	0.1965599
23	0x3f2b4c84	0.6691363
24	0xbb627400	-0.0034554005
25	0xc053e03c	-3.3105612
26	0x404d7340	3.2101593
27	0xbf3874ce	-0.7205323
28	0x404742f8	3.1134624
29	0xc0359401	-2.8371584
30	0xbe55b320	-0.20869112
31	0xc00e416b	-2.2227428
32	0xbfb751f5	-1.4321886
33	0x4014e363	2.3263786
34	0xbf25dbf6	-0.6478876
35	0x3eff825c	0.49904144
36	0xbe56f180	-0.20990562
37	0xc01eb8db	-2.4800327
38	0x3ebec408	0.37258935
39	0xbea9608c	-0.33081472
40	0xbf9faacb	-1.2473997
41	0x403f0e5e	2.985252
42	0x3f2d4b0a	0.67692626
43	0xbeb863ac	-0.36013544
44	0x401ee061	2.482445
45	0xbecd8c10	-0.40145922
46	0x405bb24a	3.432757
47	0xbf217cc2	-0.6308099
48	0xbef5f738	-0.48040175
49	0x4044e4df	3.0764692
50	0x4055bb56	3.339559
51	0xc029ed1e	-2.6550975
52	0xbf13989a	-0.57654727
53	0xbf59d9ae	-0.8509778
54	0x3e93bd28	0.28855252
55	0xbec8a6f0	-0.39189863
56	0xc0149e2a	-2.3221536
57	0xbfbb27de	-1.4621542
58	0xbf351182	-0.7072984
59	0xbfb2a535	-1.3956667
60	0x3ee7e598	0.45292354
61	0x4084b7dd	4.1474442
62	0x4035be92	2.8397565
63	0x3ccd08c0	0.025028586

fc2.weight f4 [32, 64]
0	0x3ddadc04	0.10686496
1	0x3df0be13	0.11755004
2	0x3df0d4d4	0.11759344
3	0x3d882451	0.06647552
4	0xbda8bc28	-0.08239013
5	0x3d9b9980	0.07597637
6	0x3d9e0d4a	0.077173784
7	0x3dac0112	0.08398642
8	0x3e35f7ce	0.17770311
9	0xbdeb3006	-0.11483769
10	0xbd57b0b9	-0.05265877
11	0x3dfba0f8	0.12286562
12	0x3d73c634	0.059515193
13	0x3db07560	0.086161375
14	0x3d1e91c8	0.038713247
15	0xbb8286aa	-0.0039833384
16	0x3cb56ea0	0.022147477
17	0x3decf240	0.11569643
18	0xbdf2339e	-0.118262514
19	0x3e29409f	0.16528557
20	0x3d1df188	0.03856042
21	0xbc591d19	-0.013251566
22	0xbda858a6	-0.08220033
23	0xbdae3aac	-0.085072845
24	0x3c81d8d8	0.01585047
25	0x3e73d670	0.2381227
26	0xbdb9bd0d	-0.09069262
27	0xbd2d4960	-0.042306304
28	0xbd37c689	-0.044867072
29	0x3e07ae8b	0.13250177
30	0xbd91c248	-0.07117134
31	0x3e49b2ee	0.19697163
32	0x3e3d796e	0.18503353
33	0xbcbd18f5	-0.02308319
34	0x3df49176	0.11941807
35	0x3d99730c	0.074926466
36	0x3d0449a0	0.032296777
37	0x3d69c794	0.0570751
38	0xbd8ed7d6	-0.06974761
39	0xbcd2c900	-0.02573061
40	0x3e3d8453	0.18507509
41	0xbdc3b3f0	-0.09555805
42	0x3c85dc40	0.016340375
43	0x3deca1e8	0.11554319
44	0xbddc29d4	-0.107501656
45	0x3b9f48e0	0.0048609823
46	0xbf8c6132	-1.0967162
47	0xbc60481c	-0.013689067
48	0xbde9cf88	-0.114165366
49	0xbe1e7eb3	-0.1547802
50	0xbc893324	-0.016748019
51	0x3e3e2046	0.18566999
52	0x3df9abdc	0.12190983
53	0x3abfd280	0.0014634877
54	0x3d55909c	0.052139863
55	0xbc9e0650	-0.01929012
56	0x3e065de0	0.13121748
57	0x3db16bcd	0.086631395
58	0xbbca9b80	-0.006183088
59	0x3df93bae	0.12169586
60	0x3de9132c	0.1138061
61	0xc02103f3	-2.515866
62	0xbdf47dfa	-0.119380906
63	0x3d18b2ec	0.03728001
64	0xbba1cc80	-0.0049377084
65	0x3d886b16	0.0666105
66	0xbbc04b40	-0.0058683455
67	0xbd865ddc	-0.06560871
68	0x3d838c78	0.06423277
69	0xbd3745a0	-0.044744134
70	0x3d93d54a	0.07218416
71	0xbc896698	-0.016772553
72	0xbccd63b8	-0.025071964
73	0x3d8fe80a	0.0702668
74	0xbdb9925a	-0.090611175
75	0x3951dc00	0.0002001375
76	0x3da2834c	0.07935199
77	0xbded94ec	-0.1160067
78	0xbd3ff50c	-0.046864554
79	0xbdb746c2	-0.08949043
80	0x3daccc1e	0.0843737
81	0x3dac4aea	0.08412726
82	0xbd8ed508	-0.06974226
83	0xbae7fe80	-0.0017699748
84	0xbcc2c950	-0.023777634
85	0xbd89b2d0	-0.06723559
86	0x3d1b8fdc	0.037978992
87	0x3d826440	0.063667774
88	0xbd8dfafc	-0.06932637
89	0x3d45ccf8	0.048291177
90	0xbd952e8e	-0.0728427
91	0xbc73eb60	-0.014887661
92	0xbdb0b81e	-0.086288676
93	0xbda522a4	-0.08063248
94	0xbda54e56	-0.08071582
95	0x3d2a50ec	0.04158108
96	0xbd4c7874	-0.04991956
97	0xbdffd666	-0.12492065
98	0x3dd21846	0.10258536
99	0x3df0a23c	0.11749694
100	0xbba1d120	-0.0049382597
101	0x3ab21580	0.001358673
102	0xbd920f2c	-0.071318
103	0xbc4c1c10	-0.0124578625
104	0xbdff005e	-0.12451242
105	0x3d82dbdc	0.06389591
106	0x3d201e04	0.039091125
107	0xbddff0a0	-0.109345675
108	0x3da89036	0.08230631
109	0xbcde5508	-0.027140155
110	0x3d32da30	0.04366511
111	0xbd574f1c	-0.05256568
112	0xbcfd0cf8	-0.030889973
113	0x3bce5760	0.006297037
114	0xbb32fe80	-0.0027312338
115	0xbdb9eafa	-0.09078021
116	0x3c80a748	0.015704766
117	0x3ddc7164	0.10763815
118	0xbd9c26b8	-0.076245725
119	0xbcc0f5a8	-0.023554638
120	0xbd6a8230	-0.057253063
121	0xbd7ca088	-0.061676532
122	0xbd88a072	-0.066712275
123	0xbc9aabd8	-0.01888077
124	0xbdb90184	-0.09033492
125	0xbdce38ec	-0.10069451
126	0xbdc25c0a	-0.09490211
127	0x3dfdcee4	0.12392977
128	0x3c0961a0	0.008385092
129	0xbc484761	-0.012224049
130	0xbccf7d1c	-0.025328211
131	0x3dafb5df	0.08579611
132	0xbdf7978a	-0.12089451
133	0xbd084514	-0.033269003
134	0xbde616a6	-0.112347886
135	0x3d07eba9	0.033183727
136	0xbdd1405a	-0.10217352
137	0x3daefda6	0.08544473
138	0x3dcc227f	0.09967517
139	0x3d55f1c8	0.052232534
140	0xbd04013c	-0.03222774
141	0x3d46f58c	0.048574015
142	0x3d855990	0.06511223
143	0xbdfe6cb6	-0.12423079
144	0xbc3cf520	-0.011533052
145	0xbcf2dc68	-0.029646114
146	0xbdada9c2	-0.08479644
147	0xbbff771e	-0.0077961823
148	0xbd2d63a0	-0.042331338
149	0x3d9eee45	0.0776029
150	0xbd324060	-0.043518424
151	0xbd2351b4	-0.03987284
152	0x3d5d5420	0.054035306
153	0x3d256bb6	0.040385924
154	0xbe047218	-0.12934148
155	0xbddac632	-0.10682334
156	0x3d01a187	0.031648185
157	0x3cc5aebb	0.02413117
158	0xbd21c9b8	-0.039499015
159	0xbd291575	-0.04128023
160	0xbd4145c5	-0.047185678
161	0x3daae55f	0.0834453
162	0x3d8a3d40	0.06749964
163	0xbd7925d8	-0.060827106
164	0xbd04e6e4	-0.032446757
165	0xbdeb335a	-0.11484404
166	0x3d514e1c	0.05109988
167	0x3d37df4c	0.044890687
168	0x3cf09692	0.029368673
169	0x3d5f128b	0.054461043
170	0xbc98dbe0	-0.018659532
171	0x3cd06e80	0.025443316
172	0xbd05da74	-0.032679036
173	0xbd6e9a6c	-0.058252737
174	0x3db192ba	0.08670564
175	0xbc91d7b8	-0.017803058
176	0xbd916d1a	-0.071008876
177	0xbdd027d9	-0.1016385
178	0xbd3113b8	-0.043231696
179	0x3cfc3fe5	0.030792186
180	0x3de9e448	0.11420494
181	0x3dc2eef4	0.09518233
182	0xbd2eb210	-0.042650282
183	0xbc48f5b0	-0.012265608
184	0x3da5bbbb	0.08092447
185	0x3c3a6e92	0.011378901
186	0x3d0a7748	0.03380516
187	0xbda99979	-0.08281226
188	0xbdf28f7e	-0.11843775
189	0x3ed80140	0.42188454
190	0x3dcabdff	0.0989952
191	0xbdf69bd6	-0.12041442
192	0x3dd1d934	0.10246506
193	0xbdd225a8	-0.102610886
194	0xbdc81cb4	-0.097711
195	0xbdbcfa29	-0.09227402
196	0x3a369300	0.0006964654
197	0x3dc8d0c2	0.098054424
198	0xbdd9df30	-0.10638273
199	0xbe0021a9	-0.1251284
200	0x3d5a3c9d	0.05328046
201	0xbc99a270	-0.018754214
202	0x3d8f0688	0.069836676
203	0xbdfa8910	-0.12233174
204	0xbdfaecca	-0.12252195
205	0x3d4ded3c	0.050275072
206	0xbdf93aa1	-0.12169386
207	0xbe0c3c41	-0.1369486
208	0x3d394400	0.045230865
209	0xbdd00c76	-0.10158627
210	0x3ae7e000	0.0017690659
211	0x3d6cd03b	0.05781577
212	0xbd0a1efc	-0.033720955
213	0xbc93f85b	-0.018062761
214	0xbda1a598	-0.078929126
215	0x3c991998	0.018688962
216	0x3dc8e1a6	0.09808664
217	0xbda9eede	-0.082975134
218	0x3d4d99e4	0.05019559
219	0xbde93a38	-0.113880575
220	0x3d3f0411	0.046634737
221	0xbc077b2d	-0.0082691135
222	0xbdd61c86	-0.10454659
223	0xbc815097	-0.015785499
224	0xbd97b85d	-0.074082114
225	0xbcbe2913	-0.023212945
226	0x3c9fd3c8	0.019510165
227	0x3ce17b40	0.02752459
228	0x3d9085a4	0.0705674
229	0x3d2b1fe9	0.04177848
230	0xbdbbee0a	-0.09176262
231	0x3cbdd958	0.023174927
232	0xbd7bf47d	-0.06151246
233	0xbe123a06	-0.14279947
234	0xbda4dc9c	-0.080498904
235	0x3dc47852	0.09593262
236	0xbd99fb98	-0.07518691
237	0xbd59baa4	-0.05315651
238	0xbc540845	-0.012941425
239	0xbd1184ad	-0.03552692
240	0xbdcc8764	-0.09986761
241	0xbd46920f	-0.048479136
242	0xbc7c8599	-0.015412712
243	0x3b89b975	0.0042030164
244	0x3dfb4b96	0.12270276
245	0x3bf074c0	0.0073381364
246	0xbcc51810	-0.024059325
247	0xbdfd105a	-0.123566344
248	0xba89d62f	-0.0010516102
249	0xbdff7837	-0.12474101
250	0xbd24412c	-0.040101215
251	0xbd0bed1a	-0.034161665
252	0x3c54beb0	0.012984917
253	0xbe181770	-0.1485269
254	0x3db77661	0.08958126
255	0x3cb84bd8	0.022497103

fc2.bias f4 [32]
0	0xc00a552d	-2.1614487
1	0xbde2035c	-0.11035797
2	0x3f4664a7	0.77497333
3	0x3c610bcf	0.013735726
4	0x3df6e3ea	0.1205519
5	0xbf46990a	-0.7757727
6	0xbeaa0641	-0.33207896
7	0x3fda5d8c	1.7059798
8	0xc004d052	-2.0752149
9	0x3cc5a5f0	0.024126977
10	0xbdd2fba0	-0.103019
11	0xbdd3d87a	-0.10344024
12	0xbea5fe76	-0.324207
13	0x3d6aae66	0.057295226
14	0xbf494313	-0.7861797
15	0x3fc3ee24	1.530705
16	0x4000f51d	2.0149605
17	0x3ff264fa	1.8937066
18	0xbd481e75	-0.04885717
19	0x3e8ebd13	0.27878627
20	0xbdb7aee8	-0.089689076
21	0x3d1b9374	0.03798242
22	0x3d88d7f0	0.06681812
23	0x3cf0cc19	0.029394196
24	0x3dbe6708	0.092969954
25	0xbe3c1685	-0.18367966
26	0x3dbb2224	0.09137371
27	0x403c2fd2	2.9404187
28	0xbd7ace18	-0.061231703
29	0x3daf081d	0.08546469
30	0x3fe69f69	1.8017398
31	0x3d58fb18	0.052973837

fc3.weight f4 [4, 32]
0	0xbff1a870	-1.8879528
1	0x3e0238a1	0.12716915
2	0x3e093e84	0.13402754
3	0x3bd4b488	0.0064912476
4	0xbcff1b48	-0.031140938
5	0xbe73eb3d	-0.23820205
6	0x3df54577	0.1197614
7	0x3dc100ff	0.09424018
8	0xbfa550ca	-1.291528
9	0xbd2126a0	-0.039343476
10	0xbdf8c976	-0.121478006
11	0x3d40a638	0.04703352
12	0xbe775c41	-0.24156286
13	0xbe05ff12	-0.13085583
14	0xbdab89a6	-0.08375864
15	0xbd9aabde	-0.07552312
16	0x3ea374a2	0.3192492
17	0x3d666ab8	0.05625412
18	0xbd32fd9f	-0.043698903
19	0x3d9d22dc	0.076726645
20	0x3c9c2be8	0.019063905
21	0xbdae8156	-0.085207626
22	0x3e1d9479	0.15388669
23	0x3d8408a1	0.06446958
24	0xbda08de8	-0.078395665
25	0xbe4e1333	-0.20124511
26	0x3c734e60	0.014850229
27	0x3ee6daab	0.45088705
28	0x3de83e66	0.113400266
29	0x3da475ef	0.080303065
30	0xbc2dc8e6	-0.01060698
31	0xbdaee36a	-0.085394695
32	0x3e709147	0.23492919
33	0x3dd53e46	0.10412268
34	0xbd98d043	-0.07461598
35	0x3e0a2075	0.13488944
36	0xbd61e222	-0.055147298
37	0x3cf7f6ff	0.030269144
38	0x3e0a1504	0.1348458
39	0xbdb4d001	-0.08828736
40	0x3d87de46	0.06634192
41	0x3d6a5abc	0.057215437
42	0x3e040645	0.12893017
43	0x3e2b1d7d	0.16710468
44	0xbd58a4ca	-0.05289153
45	0xbd749fc8	-0.05972269
46	0x3d67a177	0.05655047
47	0x3e03c1cb	0.12866895
48	0xbdddd7ff	-0.108322136
49	0xbe1e987a	-0.15487853
50	0xbddc79ac	-0.107653946
51	0x3cc28090	0.023742944
52	0x3e055739	0.13021554
53	0x3ddda1b6	0.108218595
54	0xbcc86458	-0.02446191
55	0xbe04f742	-0.12984946
56	0x3dd75b8a	0.105155066
57	0xbd88e3b4	-0.06684056
58	0xbd8a5cb9	-0.06755967
59	0xbec4f3df	-0.3846731
60	0x3da71e3a	0.08160062
61	0x3d3cf026	0.04612746
62	0xbca3c711	-0.019992383
63	0xbd85a2aa	-0.06525166
64	0x3e4dd615	0.20101197
65	0xbd67da0e	-0.056604438
66	0xbde241b0	-0.11047685
67	0x3dc14c43	0.09438374
68	0x3d87e742	0.06635906
69	0x3ca95f05	0.020675192
70	0x3e0038f7	0.1252173
71	0xbedd389f	-0.4320726
72	0x3d153639	0.036428664
73	0x3e01d553	0.12679033
74	0x3e0a5377	0.13508402
75	0xbd84254b	-0.064524256
76	0xbd4f1858	-0.050560325
77	0xbe1f028c	-0.15528315
78	0x3d8c2ab0	0.068440795
79	0xbd8d839a	-0.06909867
80	0xbd983a8f	-0.07433044
81	0xbf03d87b	-0.515022
82	0xbd9b3fd1	-0.075805314
83	0x3d7477c2	0.059684522
84	0xbbb906a0	-0.0056465417
85	0xbe054f56	-0.13018546
86	0xbe2ca14b	-0.16858403
87	0x3dc38610	0.09547055
88	0x3e0ef9fd	0.1396255
89	0xbd8969a4	-0.067096025
90	0x3c0d9060	0.008640379
91	0xbe041dab	-0.12901942
92	0x3dcf0f32	0.1011032
93	0x3e217e9b	0.15770952
94	0x3c2884e2	0.010285588
95	0x3b4ed8c0	0.0031562299
96	0x3dcee923	0.10103061
97	0xbe1c1762	-0.15243295
98	0xbdbb0391	-0.091315396
99	0xbdce2118	-0.10064906
100	0xbc89c8f8	-0.016819462
101	0x3d7ac960	0.061227202
102	0xbdc5ba63	-0.09654691
103	0x3da72452	0.081612244
104	0xbe02714f	-0.12738536
105	0xbdddd986	-0.10832505
106	0xbdc0fe4a	-0.09423502
107	0x3d957e0e	0.07299434
108	0xbd9333d6	-0.07187621
109	0x3de13e96	0.109982654
110	0xbdb08756	-0.08619563
111	0xbcc14a6c	-0.023595057
112	0xbcb4b88f	-0.02206066
113	0xbc692c0f	-0.014231696
114	0x3e091d22	0.1339002
115	0xbd94a163	-0.072573446
116	0x3d1c3f64	0.03814639
117	0x3ddc85b2	0.10767688
118	0x3e011411	0.12605311
119	0x3db123c0	0.08649397
120	0xbde7f148	-0.113253176
121	0xbd8c1786	-0.06840424
122	0xbe0e4df4	-0.13896924
123	0x3deadd8b	0.11468037
124	0xbdbce891	-0.09224046
125	0xbe1e0e0c	-0.15435046
126	0x3daa6052	0.08319153
127	0xbdb0dc86	-0.086358115

fc3.bias f4 [4]
0	0x3fa3362f	1.275091
1	0xc00cd2c5	-2.2003644
2	0x3f1c8ea9	0.6115518
3	0x3fa14420	1.2598915
