trainerBackend/best_model.pth (torch, 12070 bytes, 6 tensors)

fc1.weight f4 [64, 1]
0	0xbf729330	-0.9475584
1	0xbeba7ba0	-0.36422443
2	0x3ef6509e	0.4810838
3	0x3e9ffff1	0.31249955
4	0x3f55fc95	0.83588535
5	0xbede3cb0	-0.43405676
6	0x3ee66a00	0.45002747
7	0x3f71eb83	0.9449999
8	0xbf494ef6	-0.7863611
9	0xbec9dadc	-0.3942479
10	0x3f74a05a	0.9555718
11	0xbf2ccd20	-0.67500496
12	0x3f7bca92	0.9835597
13	0xbec95da4	-0.39329255
14	0xbea7a65c	-0.3274411
15	0x3e857f5a	0.26073724
16	0xbf59f464	-0.85138535
17	0x3edd9bf3	0.43283042
18	0xbe4674d8	-0.1938051
19	0xbf1b9d24	-0.6078665
20	0x3f1b232b	0.6060054
21	0xbf260c9e	-0.64863
22	0xbe7d3b90	-0.24729753
23	0x3f2efc4a	0.6835371
24	0x3e853462	0.26016527
25	0x3e288c03	0.1645966
26	0x3eb1b805	0.34710708
27	0xbece2188	-0.40259957
28	0x3ec30bb1	0.38094857
29	0x3f645753	0.89195746
30	0x3f37ead7	0.7184271
31	0x3f09e989	0.5387197
32	0x3f1a6050	0.6030321
33	0xbf1fd382	-0.6243211
34	0xbf1656e2	-0.5872632
35	0x3eda6c83	0.42660913
36	0xbca4d3c0	-0.020120502
37	0x3ecb0608	0.3965304
38	0x3eb774e4	0.35831368
39	0xbe8bf188	-0.2733271
40	0xbeb19a18	-0.34687877
41	0x3ee1f4c3	0.4413205
42	0x3f0757f2	0.5286857
43	0xbf344d96	-0.70430887
44	0x3e6c6d72	0.23088625
45	0x3f388d6f	0.7209081
46	0x3eaff842	0.34369093
47	0x3e97e3fb	0.29666123
48	0xbeefa05c	-0.46802032
49	0x3f79f03d	0.976322
50	0xbf3f6c74	-0.7477486
51	0x3ea67f35	0.32518926
52	0x3e7a5c0b	0.24449174
53	0xbf4ee6c8	-0.80820894
54	0xbe064470	-0.13112044
55	0x3ee1ab5a	0.44076043
56	0x3f67a04d	0.90478975
57	0xbf6808fc	-0.9063871
58	0x3f42b37e	0.76055133
59	0x3e6a1812	0.22860745
60	0xbe1c6080	-0.15271187
61	0x3da9db80	0.082938194
62	0x3f819825	1.0124556
63	0xbd1c6b80	-0.038188457

fc1.bias f4 [64]
0	0xbf536fa4	-0.82592225
1	0x3f66bc4a	0.90131056
2	0xbfa37a1f	-1.2771643
3	0x403d6cbe	2.959762
4	0xbf5307c2	-0.8243371
5	0xbe17ad58	-0.14812219
6	0x3f83c20b	1.0293592
7	0xbfeb7454	-1.8394876
8	0x3f10d218	0.5657058
9	0xbceec980	-0.029148817
10	0x401015f6	2.2513404
11	0x3efb3830	0.49066305
12	0xbf46d204	-0.7766421
13	0xbf0e0ffe	-0.5549315
14	0xbe8ce314	-0.27516997
15	0x3ffa0859	1.9533798
16	0xbe6d6368	-0.23182452
17	0xbf0fc8f4	-0.56166005
18	0xbf697a64	-0.9120238
19	0x3e703e78	0.2346133
20	0x405fe5b8	3.498396
21	0x3d78ffc0	0.060790777
22	0xbf51112e	-0.8166684
23	0xc0221fe2	-2.533196
24	0x4055478a	3.3324914
25	0xc041c7a9	-3.0278113
26	0x402a8ef1	2.6649745
27	0xbf0c9b4e	-0.54924476
28	0x3f6a537f	0.91533655
29	0x3f6524a8	0.8950906
30	0x404b768e	3.179111
31	0x3fffe22f	1.9990901
32	0x401b89c4	2.4302835
33	0xbef20c00	-0.4727478
34	0xbf20f5f8	-0.6287532
35	0x403ad782	2.9194036
36	0xbeb70e70	-0.35753202
37	0x40381154	2.8760576
38	0xbe1fdffc	-0.15612787
39	0x3f44c9a0	0.76870155
40	0x3f21dc2a	0.6322657
41	0xbfd03c64	-1.626843
42	0xc0223d40	-2.5349884
43	0xbf270c4a	-0.65253127
44	0x4035857c	2.8362722
45	0xc046d88e	-3.1069674
46	0xc020647d	-2.5061333
47	0x3feb7773	1.8395828
48	0xbf25f8f8	-0.6483302
49	0x3f87b22c	1.0601249
50	0x3f5b998c	0.8578117
51	0x4041cb5b	3.0280368
52	0xc00702d5	-2.1095479
53	0xbd2f4160	-0.042786956
54	0x3e5d1310	0.21589303
55	0x400a2119	2.1582701
56	0xc00636f3	-2.0971038
57	0xbdf1b950	-0.11802924
58	0xc054865a	-3.3207002
59	0xc05e6af4	-3.475278
60	0x3f50b09a	0.8151947
61	0x40188ace	2.383472
62	0x3dd9975f	0.10624575
63	0xbf6de5b2	-0.9292861

fc2.weight f4 [32, 64]
0	0xbd1d3c14	-0.038387373
1	0xbcd80f50	-0.02637449
2	0x3d61178e	0.054954104
3	0x3bd18284	0.0063937325
4	0x3de8a066	0.113587186
5	0xbdb7ca1c	-0.08974096
6	0xbcda5bba	-0.026655067
7	0xbc623db6	-0.013808658
8	0x3bbabba0	0.005698636
9	0x3c515390	0.0127762705
10	0xbc4f06a4	-0.012635861
11	0x3db5f6c8	0.088849604
12	0x3d467758	0.04845366
13	0x3debd66c	0.11515507
14	0xbd753168	-0.05986157
15	0x3d6194d3	0.05507357
16	0x3daa0222	0.08301188
17	0x3d59699d	0.053079236
18	0x3d9cd2d4	0.076574
19	0x3ddca22c	0.10773119
20	0x3cf1b963	0.029507345
21	0x3b4da4c0	0.0031378716
22	0x3d6df784	0.058097377
23	0xbc26bc5a	-0.010176742
24	0x3cdf2dc6	0.027243506
25	0x3da37341	0.07980967
26	0x3d6b285f	0.057411548
27	0x3d9bfc16	0.07616441
28	0x3dc164b2	0.09443034
29	0x3ca68f13	0.020331895
30	0xbc0bf932	-0.0085432995
31	0x3df64315	0.12024514
32	0x3d90dbda	0.07073183
33	0x3c64b710	0.013959661
34	0x3cccc4e8	0.024996236
35	0xbb472145	-0.003038482
36	0xbd9504d6	-0.07276313
37	0xbdd7a283	-0.105290435
38	0x3c733eee	0.014846547
39	0xbd1f28fc	-0.038857445
40	0x3d13d610	0.036092818
41	0x3dba1bc9	0.09087331
42	0x3c623bb8	0.013808183
43	0x3d179e6c	0.037016317
44	0x3dd6558e	0.10465537
45	0x3def5ab7	0.11687224
46	0x3d100e25	0.03516974
47	0x3d373785	0.044730682
48	0xbdbf6c42	-0.093468204
49	0xbcc95755	-0.024577776
50	0xbd3eafe0	-0.046554446
51	0x3d3fd110	0.046830237
52	0xbd962c24	-0.07332638
53	0x3da0d78e	0.07853614
54	0x3d9c9ad4	0.076467186
55	0xbdbd81bb	-0.0925326
56	0x3c98e073	0.018661713
57	0x3c313cd0	0.0108177215
58	0x3d9f8444	0.077888995
59	0xbd8a1d20	-0.067438364
60	0xbdc9e560	-0.09858203
61	0xbdfb7636	-0.12278406
62	0xbce5a021	-0.028030457
63	0x3d83ba24	0.06431988
64	0x3d892f42	0.06698467
65	0xbdec23ae	-0.11530243
66	0x3cfad310	0.03061822
67	0xbd52a124	-0.051423207
68	0x3d6a5536	0.05721017
69	0xbd63d030	-0.055618465
70	0xbdea9346	-0.114538714
71	0xbc51d474	-0.012807
72	0xbbee58e0	-0.0072737783
73	0x3d58f610	0.05296904
74	0xbdf7684c	-0.1208044
75	0x3b09d000	0.0021028519
76	0x3df5c02d	0.11999545
77	0x3d90eb02	0.07076074
78	0xbd4f1564	-0.05055751
79	0x3cdae505	0.026720533
80	0x3dc06a78	0.09395307
81	0x3c3d2642	0.011544766
82	0x3df35dea	0.11883147
83	0x3ddfe698	0.10932654
84	0xbcc16c6a	-0.023611266
85	0x3d11fe74	0.035643056
86	0xbddc23ee	-0.107490405
87	0x3e266285	0.1624852
88	0xbe7f862b	-0.24953525
89	0x3e9ce88c	0.3064617
90	0xbe23d8c9	-0.16000666
91	0x3d83f6f4	0.06443587
92	0x3d77bfb4	0.060485557
93	0xbdbf2e2a	-0.09334977
94	0xbdabd888	-0.083909094
95	0x3d9d5212	0.07681669
96	0x3d06c209	0.03289989
97	0xbdd1f12e	-0.102510795
98	0xbd96a974	-0.07356539
99	0x3a776e6b	0.0009438756
100	0x3db36e30	0.08761251
101	0xbe538853	-0.20657472
102	0xbaef60f5	-0.0018263148
103	0x3ddd3a84	0.108021766
104	0xbcb65e00	-0.02226162
105	0x3e0954e8	0.13411295
106	0x3e04e834	0.12979203
107	0x3dff08f6	0.12452881
108	0xbcda163d	-0.026621932
109	0x3e2b23e6	0.16712913
110	0x3e4fd61e	0.20296523
111	0xbe33ae4a	-0.17546955
112	0x3d423b00	0.047419548
113	0xbde295fb	-0.11063763
114	0x3dac56d2	0.08414997
115	0xbe6c2d4e	-0.23064157
116	0x3e69aba3	0.2281938
117	0x3d85a536	0.06525652
118	0x3d7768cc	0.060402676
119	0x3d0edde1	0.03487957
120	0x3e0ab232	0.13544539
121	0xbd863eae	-0.06554924
122	0x3d276e72	0.040876813
123	0x3ef827ad	0.4846777
124	0xbccc7af8	-0.02496098
125	0xbe442fb1	-0.19158818
126	0x3c9dbbb6	0.019254547
127	0x3dc5e766	0.096632764
128	0xbcae5ac0	-0.021283507
129	0xbd499024	-0.04920973
130	0xbdeb6c0c	-0.11495218
131	0xbd31d34f	-0.04341441
132	0xbcc268c4	-0.023731597
133	0xbcc521c0	-0.024063945
134	0x3d35fa31	0.044428054
135	0x3d97e075	0.07415859
136	0x3b8ce100	0.004299283
137	0x3d6ea51c	0.05826293
138	0xbde2ab67	-0.11067849
139	0x3d9a3814	0.07530227
140	0x3d964b3d	0.07338569
141	0x3de2a3a6	0.1106637
142	0x3de5c64c	0.11219463
143	0xbdbd6cd4	-0.09249273
144	0x3de533ec	0.11191544
145	0xbdf2bc06	-0.11852269
146	0xbdad28d6	-0.084550545
147	0x3cf109e0	0.029423654
148	0x3d8fd37d	0.0702276
149	0xbdd918de	-0.10600446
150	0x3d50fe28	0.051023632
151	0xbdb5fbf4	-0.08885947
152	0xbd4467c3	-0.047950517
153	0xbcfa7675	-0.030574063
154	0x3d7aa7d6	0.061195217
155	0xbd949f5a	-0.072569564
156	0xbc45e709	-0.012079009
157	0xbddd7815	-0.108139195
158	0xbdc45b54	-0.09587732
159	0x3d2ba1c6	0.041902326
160	0x3dd8bec1	0.105832584
161	0xbc9d0f40	-0.01917231
162	0x3d5fab60	0.054606795
163	0x3da1ef2f	0.07906949
164	0xbcbdb2f8	-0.023156628
165	0x3de2f10a	0.11081131
166	0xbc0415d0	-0.008061841
167	0xbcbf50e0	-0.023353994
168	0x3cff5fc0	0.031173587
169	0x3dce56f2	0.10075177
170	0xbca87c3a	-0.020567048
171	0x3dcb783c	0.09935042
172	0x3dc8518a	0.09781177
173	0x3d97c83d	0.07411239
174	0xbd23fc39	-0.04003546
175	0x3def16c5	0.11674265
176	0xbd9d72c0	-0.076879025
177	0x3d7fd54a	0.062459268
178	0x3a7e5000	0.0009701252
179	0x3d23b35c	0.039965972
180	0xbe182bd0	-0.14860463
181	0x3c92d6a0	0.017924607
182	0x3cfe1788	0.03101708
183	0x3db01c68	0.08599168
184	0x3dcd19ab	0.100146614
185	0xbbd16ac0	-0.0063908994
186	0xbd939e09	-0.07207877
187	0xbdaa8e68	-0.08327943
188	0x3de3d734	0.11125031
189	0x3dad153b	0.08451315
190	0xbd398e60	-0.045301795
191	0x3ce147c8	0.027500048
192	0xbc93ace8	-0.018026784
193	0x3db4ea20	0.08833718
194	0xbd29d070	-0.041458547
195	0x3a8ecc80	0.0010894686
196	0x3d702828	0.058632046
197	0x3da8d326	0.08243398
198	0x3d8a59c6	0.06755404
199	0xbd2d7e60	-0.04235685
200	0xbd7383cc	-0.059451863
201	0xbd925fbe	-0.071471676
202	0xbda9744c	-0.08274135
203	0x3dcf2230	0.101139426
204	0xbd6df934	-0.058098987
205	0xbc41f400	-0.011837959
206	0xbdf07c4c	-0.11742458
207	0xbda215fa	-0.07914348
208	0xbdf56a88	-0.1198321
209	0xbc848108	-0.016174808
210	0x3dd3058a	0.10303791
211	0x3d62d7e8	0.055381685
212	0x3de315b4	0.11088124
213	0x3d128130	0.035767734
214	0xbdf133a0	-0.11777425
215	0x3df7a29c	0.12091562
216	0xbda0c4a6	-0.07850008
217	0x3dffde72	0.124936
218	0x3be02120	0.0068398863
219	0xbdad153a	-0.08451314
220	0xbddbdfdc	-0.10736057
221	0xbd14480c	-0.03620152
222	0xbcaaa940	-0.020832658
223	0xbb7098c0	-0.003671214
224	0xbd26759c	-0.040639505
225	0x3d841032	0.064484015
226	0x3db438e0	0.087999105
227	0xbd33f2cc	-0.04393272
228	0x3dcddb88	0.10051638
229	0xbd9ef4b2	-0.07761516
230	0x3df8c390	0.121466756
231	0x3da17c0e	0.0788499
232	0xbd6ebc98	-0.058285326
233	0xbdc96d7a	-0.09835334
234	0x3d7cea90	0.061747134
235	0x3d37e04c	0.04489164
236	0x3d8dfc02	0.06932832
237	0xbdb2b388	-0.08725649
238	0xbdd716e0	-0.1050241
239	0xbcd77fe0	-0.026306093
240	0x3d9b0994	0.07570186
241	0x3d9711b4	0.073764235
242	0xbdf1364a	-0.11777933
243	0xbc83ef60	-0.016105354
244	0xbdc4f7b8	-0.09617561
245	0xbdac1342	-0.08402111
246	0x3af3d380	0.0018602461
247	0x3def2f92	0.11678995
248	0xbd8e7e2c	-0.06957659
249	0xbdcc371c	-0.09971449
250	0x3d714d64	0.058911696
251	0x3d6b3518	0.05742368
252	0xbdd2a0c8	-0.10284573
253	0x3db8451a	0.08997555
254	0xbd4b33b4	-0.049609855
255	0xbdddb860	-0.10826182

fc2.bias f4 [32]
0	0xbf1ae3f6	-0.6050409
1	0xbfa66c1a	-1.300174
2	0x3f4e3330	0.80546856
3	0xbc8031f0	-0.015648812
4	0x3fede484	1.8585362
5	0x3f8c895e	1.0979421
6	0xbdcd85d6	-0.10035293
7	0x3db8675f	0.090040915
8	0xbd661f98	-0.056182474
9	0x3d3ef74c	0.04662256
10	0xbf554e3e	-0.83322513
11	0xbf3f2951	-0.7467242
12	0x3d0f7ee4	0.03503312
13	0x3dcac27a	0.09900375
14	0xbb8e8180	-0.0043489337
15	0x3ea1ae31	0.3157821
16	0xbdfd00d0	-0.123536706
17	0xbd83e504	-0.06440166
18	0x3d01739f	0.031604405
19	0x3d5ca370	0.053866804
20	0xbfde95f9	-1.7389518
21	0xbedcfc50	-0.4316125
22	0x3c200d80	0.009768844
23	0x3f7a0265	0.97659904
24	0x3f88ef78	1.069808
25	0x3dded236	0.10879938
26	0x3f927cef	1.1444377
27	0xbfba4606	-1.455262
28	0xbd995952	-0.074877396
29	0xbdce2540	-0.100656986
30	0x3d9c9cd1	0.07647098
31	0xbd1a2180	-0.037629604

fc3.weight f4 [4, 32]
0	0xbe0bc5a9	-0.1364962
1	0xbde3e402	-0.111274734
2	0x3e52bef1	0.20580651
3	0x3e10077d	0.14065357
4	0x3ebe8c73	0.3721653
5	0x3e29af86	0.16570863
6	0x3d745ba4	0.059657708
7	0xbd35f921	-0.04442704
8	0xbe34c585	-0.17653473
9	0xbd50c794	-0.050971583
10	0xbd9928fd	-0.07478521
11	0x3d9b31c4	0.075778514
12	0xbc577c90	-0.013152257
13	0xbde1f57d	-0.11033151
14	0xbc9e6890	-0.019336969
15	0x3e20f8ef	0.1571996
16	0x3e31f9dd	0.17380472
17	0x3e23cc83	0.15995984
18	0x3de21652	0.110394135
19	0xbe19c452	-0.15016297
20	0xbfc1eab3	-1.514975
21	0xbe163e81	-0.14672281
22	0x3e013175	0.12616523
23	0x3e2517a6	0.16122302
24	0x3e944731	0.28960565
25	0x3dfad736	0.122480795
26	0x3e1ea84b	0.15493886
27	0xbf2b4c2a	-0.6691309
28	0xbc09d170	-0.00841175
29	0xbd3057d8	-0.043052524
30	0xbd3f9dda	-0.0467814
31	0xbe253f0f	-0.16137336
32	0xbd8da81f	-0.06916832
33	0x3e22a860	0.15884542
34	0x3d455def	0.048185285
35	0xbd71ddac	-0.059049293
36	0xbe4d05a2	-0.2002168
37	0xbe6fb6c1	-0.23409559
38	0x3d7c5914	0.06160839
39	0x3dd8a0d0	0.105775476
40	0xbdad0358	-0.084479034
41	0xbe25f16e	-0.1620538
42	0x3e043e35	0.12914355
43	0x3e1d54dd	0.15364404
44	0xbce0ee30	-0.027457327
45	0x3ddd18da	0.10795756
46	0xbe1f2e6e	-0.15545055
47	0x3dae3e24	0.08507946
48	0xbd359594	-0.044332102
49	0x3de63a0a	0.11241539
50	0x3cee232e	0.02906951
51	0x3e250867	0.16116486
52	0x3f04b54b	0.5183913
53	0xbd27618d	-0.040864516
54	0x3d7c2478	0.061558217
55	0x3b8f665f	0.0043762173
56	0xbe829fc2	-0.2551251
57	0xbdce1071	-0.1006173
58	0xbe473daf	-0.19457124
59	0x3e7174b5	0.23579676
60	0xbde4f9ed	-0.11180482
61	0x3d29723c	0.041368708
62	0x3e2798b2	0.16366842
63	0xbe07773c	-0.13229078
64	0x3da85a4d	0.082203485
65	0x3df00e27	0.11721449
66	0xbd63bce8	-0.055600077
67	0xbdda06b9	-0.106458135
68	0xbe372330	-0.17884517
69	0xbe0734a1	-0.1320367
70	0xbcc16000	-0.023605347
71	0x3dc4ad7e	0.096034035
72	0xbe1ad55b	-0.15120451
73	0x3d86a056	0.065735504
74	0xbe066887	-0.13125812
75	0x3cd27be8	0.025693849
76	0x3e2fcd37	0.17168127
77	0x3b332140	0.002733305
78	0x3e1e280b	0.15444963
79	0x3be9e25c	0.00713758
80	0x3e05845d	0.13038774
81	0xbd4cccb8	-0.049999923
82	0xbd9c8d98	-0.07644194
83	0x3d86a2dc	0.06574032
84	0x3e5fdab0	0.21860766
85	0x3e3427a8	0.17593253
86	0xbd3c73f8	-0.046009034
87	0xbd5eea02	-0.054422386
88	0xbdafa4a4	-0.085763246
89	0x3dbe9692	0.09306063
90	0xbdf8134f	-0.12113058
91	0xbd43933c	-0.047747836
92	0x3df6a602	0.12043382
93	0xbe11164a	-0.14168659
94	0xbd8e53b7	-0.06949561
95	0xbe0d23e8	-0.13783228
96	0xbe234109	-0.15942778
97	0x3c47ec86	0.012202388
98	0xbe043459	-0.12910594
99	0x3d8fa654	0.070141464
100	0xbddac276	-0.10681622
101	0x3e3407c6	0.1758109
102	0x3d9875e6	0.07444362
103	0xbd046d5b	-0.032330852
104	0x3c020fd0	0.00793834
105	0xbda3a0ac	-0.0798963
106	0x3c9009e8	0.017582849
107	0x3e3de7ab	0.18545406
108	0x3d3d2028	0.046173245
109	0x3d5f8b98	0.054576486
110	0xbdd97f80	-0.10620022
111	0xbd3353da	-0.04378114
112	0x3d86d98c	0.065844625
113	0xbd16458c	-0.03668742
114	0x3d88b856	0.06675784
115	0xbde81330	-0.11331785
116	0xbd9e9e72	-0.07745065
117	0xbc8c2b91	-0.017110618
118	0x3d9ff3c6	0.07810168
119	0xbd76b3e3	-0.060230147
120	0x3df37061	0.11886669
121	0x3c89a3e0	0.016801775
122	0x3de25e7d	0.110531785
123	0x3b6f9ea4	0.0036563063
124	0x3d1f7238	0.038927287
125	0xbdefe551	-0.117136605
126	0x3e345b4a	0.17612949
127	0x3d6daa50	0.05802375

fc3.bias f4 [4]
0	0x3f9979fb	1.199035
1	0xbf6b3e79	-0.918922
2	0xbc6b3819	-0.014356636
3	0x3e7cc6b3	0.24685173
